…
I0111 11:56:22.847455 28786 solver.cpp:91] Creating training net from net file: /media/hl/新加卷/SemanticSegmentation/SegNet-Tutorial/Models/segnet_train.prototxt
I0111 11:56:22.848402 28786 net.cpp:58] Initializing net from parameters: 
name: "VGG_ILSVRC_16_layer"
state {
  phase: TRAIN
  level: 0
  stage: ""
}
layer {
  name: "data"
  type: "DenseImageData"
  top: "data"
  top: "label"
  dense_image_data_param {
    source: "/media/hl/\346\226\260\345\212\240\345\215\267/SemanticSegmentation/SegNet-Tutorial/CamVid/train.txt"
    batch_size: 1
    shuffle: true
  }
}
layer {
  name: "conv1_1"
  type: "Convolution"
  bottom: "data"
  top: "conv1_1"
  param {
    lr_mult: 1
    decay_mult: 1
  }
  param {
    lr_mult: 2
    decay_mult: 0
  }
  convolution_param {
    num_output: 64
    pad: 1
    kernel_size: 3
    weight_filler {
      type: "msra"
    }
    bias_filler {
      type: "constant"
    }
  }
}
layer {
  name: "conv1_1_bn"
  type: "BN"
  bottom: "conv1_1"
  top: "conv1_1"
  param {
    lr_mult: 1
    decay_mult: 1
  }
  param {
    lr_mult: 1
    decay_mult: 0
  }
  bn_param {
    scale_filler {
      type: "constant"
      value: 1
    }
    shift_filler {
      type: "constant"
      value: 0.001
    }
  }
}
layer {
  name: "relu1_1"
  type: "ReLU"
  bottom: "conv1_1"
  top: "conv1_1"
}
layer {
  name: "conv1_2"
  type: "Convolution"
  bottom: "conv1_1"
  top: "conv1_2"
  param {
    lr_mult: 1
    decay_mult: 1
  }
  param {
    lr_mult: 2
    decay_mult: 0
  }
  convolution_param {
    num_output: 64
    pad: 1
    kernel_size: 3
    weight_filler {
      type: "msra"
    }
    bias_filler {
      type: "constant"
    }
  }
}
layer {
  name: "conv1_2_bn"
  type: "BN"
  bottom: "conv1_2"
  top: "conv1_2"
  param {
    lr_mult: 1
    decay_mult: 1
  }
  param {
    lr_mult: 1
    decay_mult: 0
  }
  bn_param {
    scale_filler {
      type: "constant"
      value: 1
    }
    shift_filler {
      type: "constant"
      value: 0.001
    }
  }
}
layer {
  name: "relu1_2"
  type: "ReLU"
  bottom: "conv1_2"
  top: "conv1_2"
}
layer {
  name: "pool1"
  type: "Pooling"
  bottom: "conv1_2"
  top: "pool1"
  top: "pool1_mask"
  pooling_param {
    pool: MAX
    kernel_size: 2
    stride: 2
  }
}
layer {
  name: "conv2_1"
  type: "Convolution"
  bottom: "pool1"
  top: "conv2_1"
  param {
    lr_mult: 1
    decay_mult: 1
  }
  param {
    lr_mult: 2
    decay_mult: 0
  }
  convolution_param {
    num_output: 128
    pad: 1
    kernel_size: 3
    weight_filler {
      type: "msra"
    }
    bias_filler {
      type: "constant"
    }
  }
}
layer {
  name: "conv2_1_bn"
  type: "BN"
  bottom: "conv2_1"
  top: "conv2_1"
  param {
    lr_mult: 1
    decay_mult: 1
  }
  param {
    lr_mult: 1
    decay_mult: 0
  }
  bn_param {
    scale_filler {
      type: "constant"
      value: 1
    }
    shift_filler {
      type: "constant"
      value: 0.001
    }
  }
}
layer {
  name: "relu2_1"
  type: "ReLU"
  bottom: "conv2_1"
  top: "conv2_1"
}
layer {
  name: "conv2_2"
  type: "Convolution"
  bottom: "conv2_1"
  top: "conv2_2"
  param {
    lr_mult: 1
    decay_mult: 1
  }
  param {
    lr_mult: 2
    decay_mult: 0
  }
  convolution_param {
    num_output: 128
    pad: 1
    kernel_size: 3
    weight_filler {
      type: "msra"
    }
    bias_filler {
      type: "constant"
    }
  }
}
layer {
  name: "conv2_2_bn"
  type: "BN"
  bottom: "conv2_2"
  top: "conv2_2"
  param {
    lr_mult: 1
    decay_mult: 1
  }
  param {
    lr_mult: 1
    decay_mult: 0
  }
  bn_param {
    scale_filler {
      type: "constant"
      value: 1
    }
    shift_filler {
      type: "constant"
      value: 0.001
    }
  }
}
layer {
  name: "relu2_2"
  type: "ReLU"
  bottom: "conv2_2"
  top: "conv2_2"
}
layer {
  name: "pool2"
  type: "Pooling"
  bottom: "conv2_2"
  top: "pool2"
  top: "pool2_mask"
  pooling_param {
    pool: MAX
    kernel_size: 2
    stride: 2
  }
}
layer {
  name: "conv3_1"
  type: "Convolution"
  bottom: "pool2"
  top: "conv3_1"
  param {
    lr_mult: 1
    decay_mult: 1
  }
  param {
    lr_mult: 2
    decay_mult: 0
  }
  convolution_param {
    num_output: 256
    pad: 1
    kernel_size: 3
    weight_filler {
      type: "msra"
    }
    bias_filler {
      type: "constant"
    }
  }
}
layer {
  name: "conv3_1_bn"
  type: "BN"
  bottom: "conv3_1"
  top: "conv3_1"
  param {
    lr_mult: 1
    decay_mult: 1
  }
  param {
    lr_mult: 1
    decay_mult: 0
  }
  bn_param {
    scale_filler {
      type: "constant"
      value: 1
    }
    shift_filler {
      type: "constant"
      value: 0.001
    }
  }
}
layer {
  name: "relu3_1"
  type: "ReLU"
  bottom: "conv3_1"
  top: "conv3_1"
}
layer {
  name: "conv3_2"
  type: "Convolution"
  bottom: "conv3_1"
  top: "conv3_2"
  param {
    lr_mult: 1
    decay_mult: 1
  }
  param {
    lr_mult: 2
    decay_mult: 0
  }
  convolution_param {
    num_output: 256
    pad: 1
    kernel_size: 3
    weight_filler {
      type: "msra"
    }
    bias_filler {
      type: "constant"
    }
  }
}
layer {
  name: "conv3_2_bn"
  type: "BN"
  bottom: "conv3_2"
  top: "conv3_2"
  param {
    lr_mult: 1
    decay_mult: 1
  }
  param {
    lr_mult: 1
    decay_mult: 0
  }
  bn_param {
    scale_filler {
      type: "constant"
      value: 1
    }
    shift_filler {
      type: "constant"
      value: 0.001
    }
  }
}
layer {
  name: "relu3_2"
  type: "ReLU"
  bottom: "conv3_2"
  top: "conv3_2"
}
layer {
  name: "conv3_3"
  type: "Convolution"
  bottom: "conv3_2"
  top: "conv3_3"
  param {
    lr_mult: 1
    decay_mult: 1
  }
  param {
    lr_mult: 2
    decay_mult: 0
  }
  convolution_param {
    num_output: 256
    pad: 1
    kernel_size: 3
    weight_filler {
      type: "msra"
    }
    bias_filler {
      type: "constant"
    }
  }
}
layer {
  name: "conv3_3_bn"
  type: "BN"
  bottom: "conv3_3"
  top: "conv3_3"
  param {
    lr_mult: 1
    decay_mult: 1
  }
  param {
    lr_mult: 1
    decay_mult: 0
  }
  bn_param {
    scale_filler {
      type: "constant"
      value: 1
    }
    shift_filler {
      type: "constant"
      value: 0.001
    }
  }
}
layer {
  name: "relu3_3"
  type: "ReLU"
  bottom: "conv3_3"
  top: "conv3_3"
}
layer {
  name: "pool3"
  type: "Pooling"
  bottom: "conv3_3"
  top: "pool3"
  top: "pool3_mask"
  pooling_param {
    pool: MAX
    kernel_size: 2
    stride: 2
  }
}
layer {
  name: "conv4_1"
  type: "Convolution"
  bottom: "pool3"
  top: "conv4_1"
  param {
    lr_mult: 1
    decay_mult: 1
  }
  param {
    lr_mult: 2
    decay_mult: 0
  }
  convolution_param {
    num_output: 512
    pad: 1
    kernel_size: 3
    weight_filler {
      type: "msra"
    }
    bias_filler {
      type: "constant"
    }
  }
}
layer {
  name: "conv4_1_bn"
  type: "BN"
  bottom: "conv4_1"
  top: "conv4_1"
  param {
    lr_mult: 1
    decay_mult: 1
  }
  param {
    lr_mult: 1
    decay_mult: 0
  }
  bn_param {
    scale_filler {
      type: "constant"
      value: 1
    }
    shift_filler {
      type: "constant"
      value: 0.001
    }
  }
}
layer {
  name: "relu4_1"
  type: "ReLU"
  bottom: "conv4_1"
  top: "conv4_1"
}
layer {
  name: "conv4_2"
  type: "Convolution"
  bottom: "conv4_1"
  top: "conv4_2"
  param {
    lr_mult: 1
    decay_mult: 1
  }
  param {
    lr_mult: 2
    decay_mult: 0
  }
  convolution_param {
    num_output: 512
    pad: 1
    kernel_size: 3
    weight_filler {
      type: "msra"
    }
    bias_filler {
      type: "constant"
    }
  }
}
layer {
  name: "conv4_2_bn"
  type: "BN"
  bottom: "conv4_2"
  top: "conv4_2"
  param {
    lr_mult: 1
    decay_mult: 1
  }
  param {
    lr_mult: 1
    decay_mult: 0
  }
  bn_param {
    scale_filler {
      type: "constant"
      value: 1
    }
    shift_filler {
      type: "constant"
      value: 0.001
    }
  }
}
layer {
  name: "relu4_2"
  type: "ReLU"
  bottom: "conv4_2"
  top: "conv4_2"
}
layer {
  name: "conv4_3"
  type: "Convolution"
  bottom: "conv4_2"
  top: "conv4_3"
  param {
    lr_mult: 1
    decay_mult: 1
  }
  param {
    lr_mult: 2
    decay_mult: 0
  }
  convolution_param {
    num_output: 512
    pad: 1
    kernel_size: 3
    weight_filler {
      type: "msra"
    }
    bias_filler {
      type: "constant"
    }
  }
}
layer {
  name: "conv4_3_bn"
  type: "BN"
  bottom: "conv4_3"
  top: "conv4_3"
  param {
    lr_mult: 1
    decay_mult: 1
  }
  param {
    lr_mult: 1
    decay_mult: 0
  }
  bn_param {
    scale_filler {
      type: "constant"
      value: 1
    }
    shift_filler {
      type: "constant"
      value: 0.001
    }
  }
}
layer {
  name: "relu4_3"
  type: "ReLU"
  bottom: "conv4_3"
  top: "conv4_3"
}
layer {
  name: "pool4"
  type: "Pooling"
  bottom: "conv4_3"
  top: "pool4"
  top: "pool4_mask"
  pooling_param {
    pool: MAX
    kernel_size: 2
    stride: 2
  }
}
layer {
  name: "conv5_1"
  type: "Convolution"
  bottom: "pool4"
  top: "conv5_1"
  param {
    lr_mult: 1
    decay_mult: 1
  }
  param {
    lr_mult: 2
    decay_mult: 0
  }
  convolution_param {
    num_output: 512
    pad: 1
    kernel_size: 3
    weight_filler {
      type: "msra"
    }
    bias_filler {
      type: "constant"
    }
  }
}
layer {
  name: "conv5_1_bn"
  type: "BN"
  bottom: "conv5_1"
  top: "conv5_1"
  param {
    lr_mult: 1
    decay_mult: 1
  }
  param {
    lr_mult: 1
    decay_mult: 0
  }
  bn_param {
    scale_filler {
      type: "constant"
      value: 1
    }
    shift_filler {
      type: "constant"
      value: 0.001
    }
  }
}
layer {
  name: "relu5_1"
  type: "ReLU"
  bottom: "conv5_1"
  top: "conv5_1"
}
layer {
  name: "conv5_2"
  type: "Convolution"
  bottom: "conv5_1"
  top: "conv5_2"
  param {
    lr_mult: 1
    decay_mult: 1
  }
  param {
    lr_mult: 2
    decay_mult: 0
  }
  convolution_param {
    num_output: 512
    pad: 1
    kernel_size: 3
    weight_filler {
      type: "msra"
    }
    bias_filler {
      type: "constant"
    }
  }
}
layer {
  name: "conv5_2_bn"
  type: "BN"
  bottom: "conv5_2"
  top: "conv5_2"
  param {
    lr_mult: 1
    decay_mult: 1
  }
  param {
    lr_mult: 1
    decay_mult: 0
  }
  bn_param {
    scale_filler {
      type: "constant"
      value: 1
    }
    shift_filler {
      type: "constant"
      value: 0.001
    }
  }
}
layer {
  name: "relu5_2"
  type: "ReLU"
  bottom: "conv5_2"
  top: "conv5_2"
}
layer {
  name: "conv5_3"
  type: "Convolution"
  bottom: "conv5_2"
  top: "conv5_3"
  param {
    lr_mult: 1
    decay_mult: 1
  }
  param {
    lr_mult: 2
    decay_mult: 0
  }
  convolution_param {
    num_output: 512
    pad: 1
    kernel_size: 3
    weight_filler {
      type: "msra"
    }
    bias_filler {
      type: "constant"
    }
  }
}
layer {
  name: "conv5_3_bn"
  type: "BN"
  bottom: "conv5_3"
  top: "conv5_3"
  param {
    lr_mult: 1
    decay_mult: 1
  }
  param {
    lr_mult: 1
    decay_mult: 0
  }
  bn_param {
    scale_filler {
      type: "constant"
      value: 1
    }
    shift_filler {
      type: "constant"
      value: 0.001
    }
  }
}
layer {
  name: "relu5_3"
  type: "ReLU"
  bottom: "conv5_3"
  top: "conv5_3"
}
layer {
  name: "pool5"
  type: "Pooling"
  bottom: "conv5_3"
  top: "pool5"
  top: "pool5_mask"
  pooling_param {
    pool: MAX
    kernel_size: 2
    stride: 2
  }
}
layer {
  name: "upsample5"
  type: "Upsample"
  bottom: "pool5"
  bottom: "pool5_mask"
  top: "pool5_D"
  upsample_param {
    scale: 2
    upsample_h: 23
    upsample_w: 30
  }
}
layer {
  name: "conv5_3_D"
  type: "Convolution"
  bottom: "pool5_D"
  top: "conv5_3_D"
  param {
    lr_mult: 1
    decay_mult: 1
  }
  param {
    lr_mult: 2
    decay_mult: 0
  }
  convolution_param {
    num_output: 512
    pad: 1
    kernel_size: 3
    weight_filler {
      type: "msra"
    }
    bias_filler {
      type: "constant"
    }
  }
}
layer {
  name: "conv5_3_D_bn"
  type: "BN"
  bottom: "conv5_3_D"
  top: "conv5_3_D"
  param {
    lr_mult: 1
    decay_mult: 1
  }
  param {
    lr_mult: 1
    decay_mult: 0
  }
  bn_param {
    scale_filler {
      type: "constant"
      value: 1
    }
    shift_filler {
      type: "constant"
      value: 0.001
    }
  }
}
layer {
  name: "relu5_3_D"
  type: "ReLU"
  bottom: "conv5_3_D"
  top: "conv5_3_D"
}
layer {
  name: "conv5_2_D"
  type: "Convolution"
  bottom: "conv5_3_D"
  top: "conv5_2_D"
  param {
    lr_mult: 1
    decay_mult: 1
  }
  param {
    lr_mult: 2
    decay_mult: 0
  }
  convolution_param {
    num_output: 512
    pad: 1
    kernel_size: 3
    weight_filler {
      type: "msra"
    }
    bias_filler {
      type: "constant"
    }
  }
}
layer {
  name: "conv5_2_D_bn"
  type: "BN"
  bottom: "conv5_2_D"
  top: "conv5_2_D"
  param {
    lr_mult: 1
    decay_mult: 1
  }
  param {
    lr_mult: 1
    decay_mult: 0
  }
  bn_param {
    scale_filler {
      type: "constant"
      value: 1
    }
    shift_filler {
      type: "constant"
      value: 0.001
    }
  }
}
layer {
  name: "relu5_2_D"
  type: "ReLU"
  bottom: "conv5_2_D"
  top: "conv5_2_D"
}
layer {
  name: "conv5_1_D"
  type: "Convolution"
  bottom: "conv5_2_D"
  top: "conv5_1_D"
  param {
    lr_mult: 1
    decay_mult: 1
  }
  param {
    lr_mult: 2
    decay_mult: 0
  }
  convolution_param {
    num_output: 512
    pad: 1
    kernel_size: 3
    weight_filler {
      type: "msra"
    }
    bias_filler {
      type: "constant"
    }
  }
}
layer {
  name: "conv5_1_D_bn"
  type: "BN"
  bottom: "conv5_1_D"
  top: "conv5_1_D"
  param {
    lr_mult: 1
    decay_mult: 1
  }
  param {
    lr_mult: 1
    decay_mult: 0
  }
  bn_param {
    scale_filler {
      type: "constant"
      value: 1
    }
    shift_filler {
      type: "constant"
      value: 0.001
    }
  }
}
layer {
  name: "relu5_1_D"
  type: "ReLU"
  bottom: "conv5_1_D"
  top: "conv5_1_D"
}
layer {
  name: "upsample4"
  type: "Upsample"
  bottom: "conv5_1_D"
  bottom: "pool4_mask"
  top: "pool4_D"
  upsample_param {
    scale: 2
    upsample_h: 45
    upsample_w: 60
  }
}
layer {
  name: "conv4_3_D"
  type: "Convolution"
  bottom: "pool4_D"
  top: "conv4_3_D"
  param {
    lr_mult: 1
    decay_mult: 1
  }
  param {
    lr_mult: 2
    decay_mult: 0
  }
  convolution_param {
    num_output: 512
    pad: 1
    kernel_size: 3
    weight_filler {
      type: "msra"
    }
    bias_filler {
      type: "constant"
    }
  }
}
layer {
  name: "conv4_3_D_bn"
  type: "BN"
  bottom: "conv4_3_D"
  top: "conv4_3_D"
  param {
    lr_mult: 1
    decay_mult: 1
  }
  param {
    lr_mult: 1
    decay_mult: 0
  }
  bn_param {
    scale_filler {
      type: "constant"
      value: 1
    }
    shift_filler {
      type: "constant"
      value: 0.001
    }
  }
}
layer {
  name: "relu4_3_D"
  type: "ReLU"
  bottom: "conv4_3_D"
  top: "conv4_3_D"
}
layer {
  name: "conv4_2_D"
  type: "Convolution"
  bottom: "conv4_3_D"
  top: "conv4_2_D"
  param {
    lr_mult: 1
    decay_mult: 1
  }
  param {
    lr_mult: 2
    decay_mult: 0
  }
  convolution_param {
    num_output: 512
    pad: 1
    kernel_size: 3
    weight_filler {
      type: "msra"
    }
    bias_filler {
      type: "constant"
    }
  }
}
layer {
  name: "conv4_2_D_bn"
  type: "BN"
  bottom: "conv4_2_D"
  top: "conv4_2_D"
  param {
    lr_mult: 1
    decay_mult: 1
  }
  param {
    lr_mult: 1
    decay_mult: 0
  }
  bn_param {
    scale_filler {
      type: "constant"
      value: 1
    }
    shift_filler {
      type: "constant"
      value: 0.001
    }
  }
}
layer {
  name: "relu4_2_D"
  type: "ReLU"
  bottom: "conv4_2_D"
  top: "conv4_2_D"
}
layer {
  name: "conv4_1_D"
  type: "Convolution"
  bottom: "conv4_2_D"
  top: "conv4_1_D"
  param {
    lr_mult: 1
    decay_mult: 1
  }
  param {
    lr_mult: 2
    decay_mult: 0
  }
  convolution_param {
    num_output: 256
    pad: 1
    kernel_size: 3
    weight_filler {
      type: "msra"
    }
    bias_filler {
      type: "constant"
    }
  }
}
layer {
  name: "conv4_1_D_bn"
  type: "BN"
  bottom: "conv4_1_D"
  top: "conv4_1_D"
  param {
    lr_mult: 1
    decay_mult: 1
  }
  param {
    lr_mult: 1
    decay_mult: 0
  }
  bn_param {
    scale_filler {
      type: "constant"
      value: 1
    }
    shift_filler {
      type: "constant"
      value: 0.001
    }
  }
}
layer {
  name: "relu4_1_D"
  type: "ReLU"
  bottom: "conv4_1_D"
  top: "conv4_1_D"
}
layer {
  name: "upsample3"
  type: "Upsample"
  bottom: "conv4_1_D"
  bottom: "pool3_mask"
  top: "pool3_D"
  upsample_param {
    scale: 2
  }
}
layer {
  name: "conv3_3_D"
  type: "Convolution"
  bottom: "pool3_D"
  top: "conv3_3_D"
  param {
    lr_mult: 1
    decay_mult: 1
  }
  param {
    lr_mult: 2
    decay_mult: 0
  }
  convolution_param {
    num_output: 256
    pad: 1
    kernel_size: 3
    weight_filler {
      type: "msra"
    }
    bias_filler {
      type: "constant"
    }
  }
}
layer {
  name: "conv3_3_D_bn"
  type: "BN"
  bottom: "conv3_3_D"
  top: "conv3_3_D"
  param {
    lr_mult: 1
    decay_mult: 1
  }
  param {
    lr_mult: 1
    decay_mult: 0
  }
  bn_param {
    scale_filler {
      type: "constant"
      value: 1
    }
    shift_filler {
      type: "constant"
      value: 0.001
    }
  }
}
layer {
  name: "relu3_3_D"
  type: "ReLU"
  bottom: "conv3_3_D"
  top: "conv3_3_D"
}
layer {
  name: "conv3_2_D"
  type: "Convolution"
  bottom: "conv3_3_D"
  top: "conv3_2_D"
  param {
    lr_mult: 1
    decay_mult: 1
  }
  param {
    lr_mult: 2
    decay_mult: 0
  }
  convolution_param {
    num_output: 256
    pad: 1
    kernel_size: 3
    weight_filler {
      type: "msra"
    }
    bias_filler {
      type: "constant"
    }
  }
}
layer {
  name: "conv3_2_D_bn"
  type: "BN"
  bottom: "conv3_2_D"
  top: "conv3_2_D"
  param {
    lr_mult: 1
    decay_mult: 1
  }
  param {
    lr_mult: 1
    decay_mult: 0
  }
  bn_param {
    scale_filler {
      type: "constant"
      value: 1
    }
    shift_filler {
      type: "constant"
      value: 0.001
    }
  }
}
layer {
  name: "relu3_2_D"
  type: "ReLU"
  bottom: "conv3_2_D"
  top: "conv3_2_D"
}
layer {
  name: "conv3_1_D"
  type: "Convolution"
  bottom: "conv3_2_D"
  top: "conv3_1_D"
  param {
    lr_mult: 1
    decay_mult: 1
  }
  param {
    lr_mult: 2
    decay_mult: 0
  }
  convolution_param {
    num_output: 128
    pad: 1
    kernel_size: 3
    weight_filler {
      type: "msra"
    }
    bias_filler {
      type: "constant"
    }
  }
}
layer {
  name: "conv3_1_D_bn"
  type: "BN"
  bottom: "conv3_1_D"
  top: "conv3_1_D"
  param {
    lr_mult: 1
    decay_mult: 1
  }
  param {
    lr_mult: 1
    decay_mult: 0
  }
  bn_param {
    scale_filler {
      type: "constant"
      value: 1
    }
    shift_filler {
      type: "constant"
      value: 0.001
    }
  }
}
layer {
  name: "relu3_1_D"
  type: "ReLU"
  bottom: "conv3_1_D"
  top: "conv3_1_D"
}
layer {
  name: "upsample2"
  type: "Upsample"
  bottom: "conv3_1_D"
  bottom: "pool2_mask"
  top: "pool2_D"
  upsample_param {
    scale: 2
  }
}
layer {
  name: "conv2_2_D"
  type: "Convolution"
  bottom: "pool2_D"
  top: "conv2_2_D"
  param {
    lr_mult: 1
    decay_mult: 1
  }
  param {
    lr_mult: 2
    decay_mult: 0
  }
  convolution_param {
    num_output: 128
    pad: 1
    kernel_size: 3
    weight_filler {
      type: "msra"
    }
    bias_filler {
      type: "constant"
    }
  }
}
layer {
  name: "conv2_2_D_bn"
  type: "BN"
  bottom: "conv2_2_D"
  top: "conv2_2_D"
  param {
    lr_mult: 1
    decay_mult: 1
  }
  param {
    lr_mult: 1
    decay_mult: 0
  }
  bn_param {
    scale_filler {
      type: "constant"
      value: 1
    }
    shift_filler {
      type: "constant"
      value: 0.001
    }
  }
}
layer {
  name: "relu2_2_D"
  type: "ReLU"
  bottom: "conv2_2_D"
  top: "conv2_2_D"
}
layer {
  name: "conv2_1_D"
  type: "Convolution"
  bottom: "conv2_2_D"
  top: "conv2_1_D"
  param {
    lr_mult: 1
    decay_mult: 1
  }
  param {
    lr_mult: 2
    decay_mult: 0
  }
  convolution_param {
    num_output: 64
    pad: 1
    kernel_size: 3
    weight_filler {
      type: "msra"
    }
    bias_filler {
      type: "constant"
    }
  }
}
layer {
  name: "conv2_1_D_bn"
  type: "BN"
  bottom: "conv2_1_D"
  top: "conv2_1_D"
  param {
    lr_mult: 1
    decay_mult: 1
  }
  param {
    lr_mult: 1
    decay_mult: 0
  }
  bn_param {
    scale_filler {
      type: "constant"
      value: 1
    }
    shift_filler {
      type: "constant"
      value: 0.001
    }
  }
}
layer {
  name: "relu2_1_D"
  type: "ReLU"
  bottom: "conv2_1_D"
  top: "conv2_1_D"
}
layer {
  name: "upsample1"
  type: "Upsample"
  bottom: "conv2_1_D"
  bottom: "pool1_mask"
  top: "pool1_D"
  upsample_param {
    scale: 2
  }
}
layer {
  name: "conv1_2_D"
  type: "Convolution"
  bottom: "pool1_D"
  top: "conv1_2_D"
  param {
    lr_mult: 1
    decay_mult: 1
  }
  param {
    lr_mult: 2
    decay_mult: 0
  }
  convolution_param {
    num_output: 64
    pad: 1
    kernel_size: 3
    weight_filler {
      type: "msra"
    }
    bias_filler {
      type: "constant"
    }
  }
}
layer {
  name: "conv1_2_D_bn"
  type: "BN"
  bottom: "conv1_2_D"
  top: "conv1_2_D"
  param {
    lr_mult: 1
    decay_mult: 1
  }
  param {
    lr_mult: 1
    decay_mult: 0
  }
  bn_param {
    scale_filler {
      type: "constant"
      value: 1
    }
    shift_filler {
      type: "constant"
      value: 0.001
    }
  }
}
layer {
  name: "relu1_2_D"
  type: "ReLU"
  bottom: "conv1_2_D"
  top: "conv1_2_D"
}
layer {
  name: "conv1_1_D"
  type: "Convolution"
  bottom: "conv1_2_D"
  top: "conv1_1_D"
  param {
    lr_mult: 1
    decay_mult: 1
  }
  param {
    lr_mult: 2
    decay_mult: 0
  }
  convolution_param {
    num_output: 11
    pad: 1
    kernel_size: 3
    weight_filler {
      type: "msra"
    }
    bias_filler {
      type: "constant"
    }
  }
}
layer {
  name: "loss"
  type: "SoftmaxWithLoss"
  bottom: "conv1_1_D"
  bottom: "label"
  top: "loss"
  loss_param {
    ignore_label: 11
    weight_by_label_freqs: true
    class_weighting: 0.2595
    class_weighting: 0.1826
    class_weighting: 4.564
    class_weighting: 0.1417
    class_weighting: 0.9051
    class_weighting: 0.3826
    class_weighting: 9.6446
    class_weighting: 1.8418
    class_weighting: 0.6823
    class_weighting: 6.2478
    class_weighting: 7.3614
  }
  softmax_param {
    engine: CAFFE
  }
}
layer {
  name: "accuracy"
  type: "Accuracy"
  bottom: "conv1_1_D"
  bottom: "label"
  top: "accuracy"
  top: "per_class_accuracy"
}
I0111 11:56:22.848979 28786 layer_factory.hpp:77] Creating layer data
I0111 11:56:22.848999 28786 net.cpp:100] Creating Layer data
I0111 11:56:22.849005 28786 net.cpp:408] data -> data
I0111 11:56:22.849023 28786 net.cpp:408] data -> label
I0111 11:56:22.849037 28786 dense_image_data_layer.cpp:49] Opening file /media/hl/新加卷/SemanticSegmentation/SegNet-Tutorial/CamVid/train.txt
I0111 11:56:22.849402 28786 dense_image_data_layer.cpp:59] Shuffling data
I0111 11:56:22.849460 28786 dense_image_data_layer.cpp:64] A total of 367 examples.
I0111 11:56:22.870218 28786 dense_image_data_layer.cpp:117] output data size: 1,3,360,480
I0111 11:56:22.872119 28786 net.cpp:150] Setting up data
I0111 11:56:22.872139 28786 net.cpp:157] Top shape: 1 3 360 480 (518400)
I0111 11:56:22.872149 28786 net.cpp:157] Top shape: 1 1 360 480 (172800)
I0111 11:56:22.872155 28786 net.cpp:165] Memory required for data: 2764800
I0111 11:56:22.872164 28786 layer_factory.hpp:77] Creating layer label_data_1_split
I0111 11:56:22.872177 28786 net.cpp:100] Creating Layer label_data_1_split
I0111 11:56:22.872184 28786 net.cpp:434] label_data_1_split <- label
I0111 11:56:22.872198 28786 net.cpp:408] label_data_1_split -> label_data_1_split_0
I0111 11:56:22.872208 28786 net.cpp:408] label_data_1_split -> label_data_1_split_1
I0111 11:56:22.872285 28786 net.cpp:150] Setting up label_data_1_split
I0111 11:56:22.872292 28786 net.cpp:157] Top shape: 1 1 360 480 (172800)
I0111 11:56:22.872298 28786 net.cpp:157] Top shape: 1 1 360 480 (172800)
I0111 11:56:22.872303 28786 net.cpp:165] Memory required for data: 4147200
I0111 11:56:22.872306 28786 layer_factory.hpp:77] Creating layer conv1_1
I0111 11:56:22.872323 28786 net.cpp:100] Creating Layer conv1_1
I0111 11:56:22.872352 28786 net.cpp:434] conv1_1 <- data
I0111 11:56:22.872360 28786 net.cpp:408] conv1_1 -> conv1_1
I0111 11:56:23.305583 28786 net.cpp:150] Setting up conv1_1
I0111 11:56:23.305601 28786 net.cpp:157] Top shape: 1 64 360 480 (11059200)
I0111 11:56:23.305608 28786 net.cpp:165] Memory required for data: 48384000
I0111 11:56:23.305630 28786 layer_factory.hpp:77] Creating layer conv1_1_bn
I0111 11:56:23.305644 28786 net.cpp:100] Creating Layer conv1_1_bn
I0111 11:56:23.305649 28786 net.cpp:434] conv1_1_bn <- conv1_1
I0111 11:56:23.305652 28786 net.cpp:395] conv1_1_bn -> conv1_1 (in-place)
I0111 11:56:23.306672 28786 net.cpp:150] Setting up conv1_1_bn
I0111 11:56:23.306684 28786 net.cpp:157] Top shape: 1 64 360 480 (11059200)
I0111 11:56:23.306691 28786 net.cpp:165] Memory required for data: 92620800
I0111 11:56:23.306702 28786 layer_factory.hpp:77] Creating layer relu1_1
I0111 11:56:23.306712 28786 net.cpp:100] Creating Layer relu1_1
I0111 11:56:23.306716 28786 net.cpp:434] relu1_1 <- conv1_1
I0111 11:56:23.306721 28786 net.cpp:395] relu1_1 -> conv1_1 (in-place)
I0111 11:56:23.307126 28786 net.cpp:150] Setting up relu1_1
I0111 11:56:23.307134 28786 net.cpp:157] Top shape: 1 64 360 480 (11059200)
I0111 11:56:23.307139 28786 net.cpp:165] Memory required for data: 136857600
I0111 11:56:23.307142 28786 layer_factory.hpp:77] Creating layer conv1_2
I0111 11:56:23.307158 28786 net.cpp:100] Creating Layer conv1_2
I0111 11:56:23.307163 28786 net.cpp:434] conv1_2 <- conv1_1
I0111 11:56:23.307170 28786 net.cpp:408] conv1_2 -> conv1_2
I0111 11:56:23.309358 28786 net.cpp:150] Setting up conv1_2
I0111 11:56:23.309370 28786 net.cpp:157] Top shape: 1 64 360 480 (11059200)
I0111 11:56:23.309376 28786 net.cpp:165] Memory required for data: 181094400
I0111 11:56:23.309382 28786 layer_factory.hpp:77] Creating layer conv1_2_bn
I0111 11:56:23.309389 28786 net.cpp:100] Creating Layer conv1_2_bn
I0111 11:56:23.309392 28786 net.cpp:434] conv1_2_bn <- conv1_2
I0111 11:56:23.309396 28786 net.cpp:395] conv1_2_bn -> conv1_2 (in-place)
I0111 11:56:23.310340 28786 net.cpp:150] Setting up conv1_2_bn
I0111 11:56:23.310351 28786 net.cpp:157] Top shape: 1 64 360 480 (11059200)
I0111 11:56:23.310356 28786 net.cpp:165] Memory required for data: 225331200
I0111 11:56:23.310364 28786 layer_factory.hpp:77] Creating layer relu1_2
I0111 11:56:23.310369 28786 net.cpp:100] Creating Layer relu1_2
I0111 11:56:23.310371 28786 net.cpp:434] relu1_2 <- conv1_2
I0111 11:56:23.310375 28786 net.cpp:395] relu1_2 -> conv1_2 (in-place)
I0111 11:56:23.310714 28786 net.cpp:150] Setting up relu1_2
I0111 11:56:23.310720 28786 net.cpp:157] Top shape: 1 64 360 480 (11059200)
I0111 11:56:23.310724 28786 net.cpp:165] Memory required for data: 269568000
I0111 11:56:23.310729 28786 layer_factory.hpp:77] Creating layer pool1
I0111 11:56:23.310731 28786 layer_factory.cpp:91] cuDNN does not support multiple tops. Using Caffe's own pooling layer.
I0111 11:56:23.310744 28786 net.cpp:100] Creating Layer pool1
I0111 11:56:23.310746 28786 net.cpp:434] pool1 <- conv1_2
I0111 11:56:23.310753 28786 net.cpp:408] pool1 -> pool1
I0111 11:56:23.310762 28786 net.cpp:408] pool1 -> pool1_mask
I0111 11:56:23.310817 28786 net.cpp:150] Setting up pool1
I0111 11:56:23.310823 28786 net.cpp:157] Top shape: 1 64 180 240 (2764800)
I0111 11:56:23.310829 28786 net.cpp:157] Top shape: 1 64 180 240 (2764800)
I0111 11:56:23.310834 28786 net.cpp:165] Memory required for data: 291686400
I0111 11:56:23.310837 28786 layer_factory.hpp:77] Creating layer conv2_1
I0111 11:56:23.310848 28786 net.cpp:100] Creating Layer conv2_1
I0111 11:56:23.310853 28786 net.cpp:434] conv2_1 <- pool1
I0111 11:56:23.310859 28786 net.cpp:408] conv2_1 -> conv2_1
I0111 11:56:23.312965 28786 net.cpp:150] Setting up conv2_1
I0111 11:56:23.312978 28786 net.cpp:157] Top shape: 1 128 180 240 (5529600)
I0111 11:56:23.312983 28786 net.cpp:165] Memory required for data: 313804800
I0111 11:56:23.312995 28786 layer_factory.hpp:77] Creating layer conv2_1_bn
I0111 11:56:23.313005 28786 net.cpp:100] Creating Layer conv2_1_bn
I0111 11:56:23.313035 28786 net.cpp:434] conv2_1_bn <- conv2_1
I0111 11:56:23.313043 28786 net.cpp:395] conv2_1_bn -> conv2_1 (in-place)
I0111 11:56:23.313318 28786 net.cpp:150] Setting up conv2_1_bn
I0111 11:56:23.313328 28786 net.cpp:157] Top shape: 1 128 180 240 (5529600)
I0111 11:56:23.313333 28786 net.cpp:165] Memory required for data: 335923200
I0111 11:56:23.313339 28786 layer_factory.hpp:77] Creating layer relu2_1
I0111 11:56:23.313347 28786 net.cpp:100] Creating Layer relu2_1
I0111 11:56:23.313349 28786 net.cpp:434] relu2_1 <- conv2_1
I0111 11:56:23.313354 28786 net.cpp:395] relu2_1 -> conv2_1 (in-place)
I0111 11:56:23.313709 28786 net.cpp:150] Setting up relu2_1
I0111 11:56:23.313717 28786 net.cpp:157] Top shape: 1 128 180 240 (5529600)
I0111 11:56:23.313721 28786 net.cpp:165] Memory required for data: 358041600
I0111 11:56:23.313724 28786 layer_factory.hpp:77] Creating layer conv2_2
I0111 11:56:23.313733 28786 net.cpp:100] Creating Layer conv2_2
I0111 11:56:23.313736 28786 net.cpp:434] conv2_2 <- conv2_1
I0111 11:56:23.313741 28786 net.cpp:408] conv2_2 -> conv2_2
I0111 11:56:23.317203 28786 net.cpp:150] Setting up conv2_2
I0111 11:56:23.317216 28786 net.cpp:157] Top shape: 1 128 180 240 (5529600)
I0111 11:56:23.317221 28786 net.cpp:165] Memory required for data: 380160000
I0111 11:56:23.317229 28786 layer_factory.hpp:77] Creating layer conv2_2_bn
I0111 11:56:23.317239 28786 net.cpp:100] Creating Layer conv2_2_bn
I0111 11:56:23.317243 28786 net.cpp:434] conv2_2_bn <- conv2_2
I0111 11:56:23.317250 28786 net.cpp:395] conv2_2_bn -> conv2_2 (in-place)
I0111 11:56:23.317464 28786 net.cpp:150] Setting up conv2_2_bn
I0111 11:56:23.317471 28786 net.cpp:157] Top shape: 1 128 180 240 (5529600)
I0111 11:56:23.317474 28786 net.cpp:165] Memory required for data: 402278400
I0111 11:56:23.317481 28786 layer_factory.hpp:77] Creating layer relu2_2
I0111 11:56:23.317487 28786 net.cpp:100] Creating Layer relu2_2
I0111 11:56:23.317492 28786 net.cpp:434] relu2_2 <- conv2_2
I0111 11:56:23.317497 28786 net.cpp:395] relu2_2 -> conv2_2 (in-place)
I0111 11:56:23.318001 28786 net.cpp:150] Setting up relu2_2
I0111 11:56:23.318006 28786 net.cpp:157] Top shape: 1 128 180 240 (5529600)
I0111 11:56:23.318011 28786 net.cpp:165] Memory required for data: 424396800
I0111 11:56:23.318013 28786 layer_factory.hpp:77] Creating layer pool2
I0111 11:56:23.318017 28786 layer_factory.cpp:91] cuDNN does not support multiple tops. Using Caffe's own pooling layer.
I0111 11:56:23.318025 28786 net.cpp:100] Creating Layer pool2
I0111 11:56:23.318029 28786 net.cpp:434] pool2 <- conv2_2
I0111 11:56:23.318035 28786 net.cpp:408] pool2 -> pool2
I0111 11:56:23.318042 28786 net.cpp:408] pool2 -> pool2_mask
I0111 11:56:23.318080 28786 net.cpp:150] Setting up pool2
I0111 11:56:23.318085 28786 net.cpp:157] Top shape: 1 128 90 120 (1382400)
I0111 11:56:23.318089 28786 net.cpp:157] Top shape: 1 128 90 120 (1382400)
I0111 11:56:23.318094 28786 net.cpp:165] Memory required for data: 435456000
I0111 11:56:23.318096 28786 layer_factory.hpp:77] Creating layer conv3_1
I0111 11:56:23.318109 28786 net.cpp:100] Creating Layer conv3_1
I0111 11:56:23.318114 28786 net.cpp:434] conv3_1 <- pool2
I0111 11:56:23.318119 28786 net.cpp:408] conv3_1 -> conv3_1
I0111 11:56:23.322655 28786 net.cpp:150] Setting up conv3_1
I0111 11:56:23.322670 28786 net.cpp:157] Top shape: 1 256 90 120 (2764800)
I0111 11:56:23.322676 28786 net.cpp:165] Memory required for data: 446515200
I0111 11:56:23.322685 28786 layer_factory.hpp:77] Creating layer conv3_1_bn
I0111 11:56:23.322696 28786 net.cpp:100] Creating Layer conv3_1_bn
I0111 11:56:23.322700 28786 net.cpp:434] conv3_1_bn <- conv3_1
I0111 11:56:23.322705 28786 net.cpp:395] conv3_1_bn -> conv3_1 (in-place)
I0111 11:56:23.322875 28786 net.cpp:150] Setting up conv3_1_bn
I0111 11:56:23.322878 28786 net.cpp:157] Top shape: 1 256 90 120 (2764800)
I0111 11:56:23.322881 28786 net.cpp:165] Memory required for data: 457574400
I0111 11:56:23.322886 28786 layer_factory.hpp:77] Creating layer relu3_1
I0111 11:56:23.322891 28786 net.cpp:100] Creating Layer relu3_1
I0111 11:56:23.322911 28786 net.cpp:434] relu3_1 <- conv3_1
I0111 11:56:23.322916 28786 net.cpp:395] relu3_1 -> conv3_1 (in-place)
I0111 11:56:23.323236 28786 net.cpp:150] Setting up relu3_1
I0111 11:56:23.323246 28786 net.cpp:157] Top shape: 1 256 90 120 (2764800)
I0111 11:56:23.323251 28786 net.cpp:165] Memory required for data: 468633600
I0111 11:56:23.323254 28786 layer_factory.hpp:77] Creating layer conv3_2
I0111 11:56:23.323267 28786 net.cpp:100] Creating Layer conv3_2
I0111 11:56:23.323271 28786 net.cpp:434] conv3_2 <- conv3_1
I0111 11:56:23.323277 28786 net.cpp:408] conv3_2 -> conv3_2
I0111 11:56:23.329632 28786 net.cpp:150] Setting up conv3_2
I0111 11:56:23.329645 28786 net.cpp:157] Top shape: 1 256 90 120 (2764800)
I0111 11:56:23.329650 28786 net.cpp:165] Memory required for data: 479692800
I0111 11:56:23.329658 28786 layer_factory.hpp:77] Creating layer conv3_2_bn
I0111 11:56:23.329666 28786 net.cpp:100] Creating Layer conv3_2_bn
I0111 11:56:23.329669 28786 net.cpp:434] conv3_2_bn <- conv3_2
I0111 11:56:23.329674 28786 net.cpp:395] conv3_2_bn -> conv3_2 (in-place)
I0111 11:56:23.329870 28786 net.cpp:150] Setting up conv3_2_bn
I0111 11:56:23.329874 28786 net.cpp:157] Top shape: 1 256 90 120 (2764800)
I0111 11:56:23.329879 28786 net.cpp:165] Memory required for data: 490752000
I0111 11:56:23.329883 28786 layer_factory.hpp:77] Creating layer relu3_2
I0111 11:56:23.329890 28786 net.cpp:100] Creating Layer relu3_2
I0111 11:56:23.329892 28786 net.cpp:434] relu3_2 <- conv3_2
I0111 11:56:23.329897 28786 net.cpp:395] relu3_2 -> conv3_2 (in-place)
I0111 11:56:23.330212 28786 net.cpp:150] Setting up relu3_2
I0111 11:56:23.330219 28786 net.cpp:157] Top shape: 1 256 90 120 (2764800)
I0111 11:56:23.330222 28786 net.cpp:165] Memory required for data: 501811200
I0111 11:56:23.330225 28786 layer_factory.hpp:77] Creating layer conv3_3
I0111 11:56:23.330235 28786 net.cpp:100] Creating Layer conv3_3
I0111 11:56:23.330238 28786 net.cpp:434] conv3_3 <- conv3_2
I0111 11:56:23.330245 28786 net.cpp:408] conv3_3 -> conv3_3
I0111 11:56:23.337249 28786 net.cpp:150] Setting up conv3_3
I0111 11:56:23.337265 28786 net.cpp:157] Top shape: 1 256 90 120 (2764800)
I0111 11:56:23.337270 28786 net.cpp:165] Memory required for data: 512870400
I0111 11:56:23.337277 28786 layer_factory.hpp:77] Creating layer conv3_3_bn
I0111 11:56:23.337286 28786 net.cpp:100] Creating Layer conv3_3_bn
I0111 11:56:23.337291 28786 net.cpp:434] conv3_3_bn <- conv3_3
I0111 11:56:23.337296 28786 net.cpp:395] conv3_3_bn -> conv3_3 (in-place)
I0111 11:56:23.337471 28786 net.cpp:150] Setting up conv3_3_bn
I0111 11:56:23.337477 28786 net.cpp:157] Top shape: 1 256 90 120 (2764800)
I0111 11:56:23.337482 28786 net.cpp:165] Memory required for data: 523929600
I0111 11:56:23.337488 28786 layer_factory.hpp:77] Creating layer relu3_3
I0111 11:56:23.337494 28786 net.cpp:100] Creating Layer relu3_3
I0111 11:56:23.337498 28786 net.cpp:434] relu3_3 <- conv3_3
I0111 11:56:23.337502 28786 net.cpp:395] relu3_3 -> conv3_3 (in-place)
I0111 11:56:23.337882 28786 net.cpp:150] Setting up relu3_3
I0111 11:56:23.337890 28786 net.cpp:157] Top shape: 1 256 90 120 (2764800)
I0111 11:56:23.337896 28786 net.cpp:165] Memory required for data: 534988800
I0111 11:56:23.337900 28786 layer_factory.hpp:77] Creating layer pool3
I0111 11:56:23.337904 28786 layer_factory.cpp:91] cuDNN does not support multiple tops. Using Caffe's own pooling layer.
I0111 11:56:23.337911 28786 net.cpp:100] Creating Layer pool3
I0111 11:56:23.337916 28786 net.cpp:434] pool3 <- conv3_3
I0111 11:56:23.337924 28786 net.cpp:408] pool3 -> pool3
I0111 11:56:23.337929 28786 net.cpp:408] pool3 -> pool3_mask
I0111 11:56:23.337980 28786 net.cpp:150] Setting up pool3
I0111 11:56:23.337986 28786 net.cpp:157] Top shape: 1 256 45 60 (691200)
I0111 11:56:23.337990 28786 net.cpp:157] Top shape: 1 256 45 60 (691200)
I0111 11:56:23.337996 28786 net.cpp:165] Memory required for data: 540518400
I0111 11:56:23.337998 28786 layer_factory.hpp:77] Creating layer conv4_1
I0111 11:56:23.338009 28786 net.cpp:100] Creating Layer conv4_1
I0111 11:56:23.338013 28786 net.cpp:434] conv4_1 <- pool3
I0111 11:56:23.338040 28786 net.cpp:408] conv4_1 -> conv4_1
I0111 11:56:23.349340 28786 net.cpp:150] Setting up conv4_1
I0111 11:56:23.349354 28786 net.cpp:157] Top shape: 1 512 45 60 (1382400)
I0111 11:56:23.349359 28786 net.cpp:165] Memory required for data: 546048000
I0111 11:56:23.349366 28786 layer_factory.hpp:77] Creating layer conv4_1_bn
I0111 11:56:23.349375 28786 net.cpp:100] Creating Layer conv4_1_bn
I0111 11:56:23.349380 28786 net.cpp:434] conv4_1_bn <- conv4_1
I0111 11:56:23.349385 28786 net.cpp:395] conv4_1_bn -> conv4_1 (in-place)
I0111 11:56:23.349555 28786 net.cpp:150] Setting up conv4_1_bn
I0111 11:56:23.349560 28786 net.cpp:157] Top shape: 1 512 45 60 (1382400)
I0111 11:56:23.349562 28786 net.cpp:165] Memory required for data: 551577600
I0111 11:56:23.349567 28786 layer_factory.hpp:77] Creating layer relu4_1
I0111 11:56:23.349572 28786 net.cpp:100] Creating Layer relu4_1
I0111 11:56:23.349575 28786 net.cpp:434] relu4_1 <- conv4_1
I0111 11:56:23.349578 28786 net.cpp:395] relu4_1 -> conv4_1 (in-place)
I0111 11:56:23.350013 28786 net.cpp:150] Setting up relu4_1
I0111 11:56:23.350020 28786 net.cpp:157] Top shape: 1 512 45 60 (1382400)
I0111 11:56:23.350024 28786 net.cpp:165] Memory required for data: 557107200
I0111 11:56:23.350028 28786 layer_factory.hpp:77] Creating layer conv4_2
I0111 11:56:23.350036 28786 net.cpp:100] Creating Layer conv4_2
I0111 11:56:23.350039 28786 net.cpp:434] conv4_2 <- conv4_1
I0111 11:56:23.350044 28786 net.cpp:408] conv4_2 -> conv4_2
I0111 11:56:23.369341 28786 net.cpp:150] Setting up conv4_2
I0111 11:56:23.369355 28786 net.cpp:157] Top shape: 1 512 45 60 (1382400)
I0111 11:56:23.369360 28786 net.cpp:165] Memory required for data: 562636800
I0111 11:56:23.369372 28786 layer_factory.hpp:77] Creating layer conv4_2_bn
I0111 11:56:23.369382 28786 net.cpp:100] Creating Layer conv4_2_bn
I0111 11:56:23.369385 28786 net.cpp:434] conv4_2_bn <- conv4_2
I0111 11:56:23.369391 28786 net.cpp:395] conv4_2_bn -> conv4_2 (in-place)
I0111 11:56:23.369565 28786 net.cpp:150] Setting up conv4_2_bn
I0111 11:56:23.369570 28786 net.cpp:157] Top shape: 1 512 45 60 (1382400)
I0111 11:56:23.369572 28786 net.cpp:165] Memory required for data: 568166400
I0111 11:56:23.369578 28786 layer_factory.hpp:77] Creating layer relu4_2
I0111 11:56:23.369582 28786 net.cpp:100] Creating Layer relu4_2
I0111 11:56:23.369585 28786 net.cpp:434] relu4_2 <- conv4_2
I0111 11:56:23.369588 28786 net.cpp:395] relu4_2 -> conv4_2 (in-place)
I0111 11:56:23.370087 28786 net.cpp:150] Setting up relu4_2
I0111 11:56:23.370095 28786 net.cpp:157] Top shape: 1 512 45 60 (1382400)
I0111 11:56:23.370100 28786 net.cpp:165] Memory required for data: 573696000
I0111 11:56:23.370101 28786 layer_factory.hpp:77] Creating layer conv4_3
I0111 11:56:23.370113 28786 net.cpp:100] Creating Layer conv4_3
I0111 11:56:23.370117 28786 net.cpp:434] conv4_3 <- conv4_2
I0111 11:56:23.370121 28786 net.cpp:408] conv4_3 -> conv4_3
I0111 11:56:23.390450 28786 net.cpp:150] Setting up conv4_3
I0111 11:56:23.390465 28786 net.cpp:157] Top shape: 1 512 45 60 (1382400)
I0111 11:56:23.390470 28786 net.cpp:165] Memory required for data: 579225600
I0111 11:56:23.390477 28786 layer_factory.hpp:77] Creating layer conv4_3_bn
I0111 11:56:23.390486 28786 net.cpp:100] Creating Layer conv4_3_bn
I0111 11:56:23.390489 28786 net.cpp:434] conv4_3_bn <- conv4_3
I0111 11:56:23.390494 28786 net.cpp:395] conv4_3_bn -> conv4_3 (in-place)
I0111 11:56:23.390678 28786 net.cpp:150] Setting up conv4_3_bn
I0111 11:56:23.390683 28786 net.cpp:157] Top shape: 1 512 45 60 (1382400)
I0111 11:56:23.390687 28786 net.cpp:165] Memory required for data: 584755200
I0111 11:56:23.390694 28786 layer_factory.hpp:77] Creating layer relu4_3
I0111 11:56:23.390699 28786 net.cpp:100] Creating Layer relu4_3
I0111 11:56:23.390702 28786 net.cpp:434] relu4_3 <- conv4_3
I0111 11:56:23.390705 28786 net.cpp:395] relu4_3 -> conv4_3 (in-place)
I0111 11:56:23.391021 28786 net.cpp:150] Setting up relu4_3
I0111 11:56:23.391026 28786 net.cpp:157] Top shape: 1 512 45 60 (1382400)
I0111 11:56:23.391049 28786 net.cpp:165] Memory required for data: 590284800
I0111 11:56:23.391054 28786 layer_factory.hpp:77] Creating layer pool4
I0111 11:56:23.391057 28786 layer_factory.cpp:91] cuDNN does not support multiple tops. Using Caffe's own pooling layer.
I0111 11:56:23.391065 28786 net.cpp:100] Creating Layer pool4
I0111 11:56:23.391069 28786 net.cpp:434] pool4 <- conv4_3
I0111 11:56:23.391075 28786 net.cpp:408] pool4 -> pool4
I0111 11:56:23.391083 28786 net.cpp:408] pool4 -> pool4_mask
I0111 11:56:23.391134 28786 net.cpp:150] Setting up pool4
I0111 11:56:23.391139 28786 net.cpp:157] Top shape: 1 512 23 30 (353280)
I0111 11:56:23.391144 28786 net.cpp:157] Top shape: 1 512 23 30 (353280)
I0111 11:56:23.391149 28786 net.cpp:165] Memory required for data: 593111040
I0111 11:56:23.391152 28786 layer_factory.hpp:77] Creating layer conv5_1
I0111 11:56:23.391161 28786 net.cpp:100] Creating Layer conv5_1
I0111 11:56:23.391165 28786 net.cpp:434] conv5_1 <- pool4
I0111 11:56:23.391171 28786 net.cpp:408] conv5_1 -> conv5_1
I0111 11:56:23.410542 28786 net.cpp:150] Setting up conv5_1
I0111 11:56:23.410557 28786 net.cpp:157] Top shape: 1 512 23 30 (353280)
I0111 11:56:23.410562 28786 net.cpp:165] Memory required for data: 594524160
I0111 11:56:23.410568 28786 layer_factory.hpp:77] Creating layer conv5_1_bn
I0111 11:56:23.410576 28786 net.cpp:100] Creating Layer conv5_1_bn
I0111 11:56:23.410580 28786 net.cpp:434] conv5_1_bn <- conv5_1
I0111 11:56:23.410584 28786 net.cpp:395] conv5_1_bn -> conv5_1 (in-place)
I0111 11:56:23.410756 28786 net.cpp:150] Setting up conv5_1_bn
I0111 11:56:23.410764 28786 net.cpp:157] Top shape: 1 512 23 30 (353280)
I0111 11:56:23.410768 28786 net.cpp:165] Memory required for data: 595937280
I0111 11:56:23.410776 28786 layer_factory.hpp:77] Creating layer relu5_1
I0111 11:56:23.410782 28786 net.cpp:100] Creating Layer relu5_1
I0111 11:56:23.410786 28786 net.cpp:434] relu5_1 <- conv5_1
I0111 11:56:23.410790 28786 net.cpp:395] relu5_1 -> conv5_1 (in-place)
I0111 11:56:23.411185 28786 net.cpp:150] Setting up relu5_1
I0111 11:56:23.411192 28786 net.cpp:157] Top shape: 1 512 23 30 (353280)
I0111 11:56:23.411196 28786 net.cpp:165] Memory required for data: 597350400
I0111 11:56:23.411198 28786 layer_factory.hpp:77] Creating layer conv5_2
I0111 11:56:23.411211 28786 net.cpp:100] Creating Layer conv5_2
I0111 11:56:23.411216 28786 net.cpp:434] conv5_2 <- conv5_1
I0111 11:56:23.411221 28786 net.cpp:408] conv5_2 -> conv5_2
I0111 11:56:23.430480 28786 net.cpp:150] Setting up conv5_2
I0111 11:56:23.430495 28786 net.cpp:157] Top shape: 1 512 23 30 (353280)
I0111 11:56:23.430500 28786 net.cpp:165] Memory required for data: 598763520
I0111 11:56:23.430506 28786 layer_factory.hpp:77] Creating layer conv5_2_bn
I0111 11:56:23.430516 28786 net.cpp:100] Creating Layer conv5_2_bn
I0111 11:56:23.430518 28786 net.cpp:434] conv5_2_bn <- conv5_2
I0111 11:56:23.430524 28786 net.cpp:395] conv5_2_bn -> conv5_2 (in-place)
I0111 11:56:23.430749 28786 net.cpp:150] Setting up conv5_2_bn
I0111 11:56:23.430757 28786 net.cpp:157] Top shape: 1 512 23 30 (353280)
I0111 11:56:23.430760 28786 net.cpp:165] Memory required for data: 600176640
I0111 11:56:23.430766 28786 layer_factory.hpp:77] Creating layer relu5_2
I0111 11:56:23.430773 28786 net.cpp:100] Creating Layer relu5_2
I0111 11:56:23.430776 28786 net.cpp:434] relu5_2 <- conv5_2
I0111 11:56:23.430781 28786 net.cpp:395] relu5_2 -> conv5_2 (in-place)
I0111 11:56:23.431118 28786 net.cpp:150] Setting up relu5_2
I0111 11:56:23.431125 28786 net.cpp:157] Top shape: 1 512 23 30 (353280)
I0111 11:56:23.431129 28786 net.cpp:165] Memory required for data: 601589760
I0111 11:56:23.431131 28786 layer_factory.hpp:77] Creating layer conv5_3
I0111 11:56:23.431143 28786 net.cpp:100] Creating Layer conv5_3
I0111 11:56:23.431146 28786 net.cpp:434] conv5_3 <- conv5_2
I0111 11:56:23.431151 28786 net.cpp:408] conv5_3 -> conv5_3
I0111 11:56:23.450832 28786 net.cpp:150] Setting up conv5_3
I0111 11:56:23.450846 28786 net.cpp:157] Top shape: 1 512 23 30 (353280)
I0111 11:56:23.450852 28786 net.cpp:165] Memory required for data: 603002880
I0111 11:56:23.450878 28786 layer_factory.hpp:77] Creating layer conv5_3_bn
I0111 11:56:23.450888 28786 net.cpp:100] Creating Layer conv5_3_bn
I0111 11:56:23.450892 28786 net.cpp:434] conv5_3_bn <- conv5_3
I0111 11:56:23.450899 28786 net.cpp:395] conv5_3_bn -> conv5_3 (in-place)
I0111 11:56:23.451081 28786 net.cpp:150] Setting up conv5_3_bn
I0111 11:56:23.451086 28786 net.cpp:157] Top shape: 1 512 23 30 (353280)
I0111 11:56:23.451089 28786 net.cpp:165] Memory required for data: 604416000
I0111 11:56:23.451094 28786 layer_factory.hpp:77] Creating layer relu5_3
I0111 11:56:23.451099 28786 net.cpp:100] Creating Layer relu5_3
I0111 11:56:23.451102 28786 net.cpp:434] relu5_3 <- conv5_3
I0111 11:56:23.451105 28786 net.cpp:395] relu5_3 -> conv5_3 (in-place)
I0111 11:56:23.452749 28786 net.cpp:150] Setting up relu5_3
I0111 11:56:23.452761 28786 net.cpp:157] Top shape: 1 512 23 30 (353280)
I0111 11:56:23.452767 28786 net.cpp:165] Memory required for data: 605829120
I0111 11:56:23.452770 28786 layer_factory.hpp:77] Creating layer pool5
I0111 11:56:23.452775 28786 layer_factory.cpp:91] cuDNN does not support multiple tops. Using Caffe's own pooling layer.
I0111 11:56:23.452783 28786 net.cpp:100] Creating Layer pool5
I0111 11:56:23.452788 28786 net.cpp:434] pool5 <- conv5_3
I0111 11:56:23.452795 28786 net.cpp:408] pool5 -> pool5
I0111 11:56:23.452800 28786 net.cpp:408] pool5 -> pool5_mask
I0111 11:56:23.452847 28786 net.cpp:150] Setting up pool5
I0111 11:56:23.452852 28786 net.cpp:157] Top shape: 1 512 12 15 (92160)
I0111 11:56:23.452855 28786 net.cpp:157] Top shape: 1 512 12 15 (92160)
I0111 11:56:23.452859 28786 net.cpp:165] Memory required for data: 606566400
I0111 11:56:23.452862 28786 layer_factory.hpp:77] Creating layer upsample5
I0111 11:56:23.452867 28786 net.cpp:100] Creating Layer upsample5
I0111 11:56:23.452870 28786 net.cpp:434] upsample5 <- pool5
I0111 11:56:23.452873 28786 net.cpp:434] upsample5 <- pool5_mask
I0111 11:56:23.452877 28786 net.cpp:408] upsample5 -> pool5_D
I0111 11:56:23.452899 28786 net.cpp:150] Setting up upsample5
I0111 11:56:23.452903 28786 net.cpp:157] Top shape: 1 512 23 30 (353280)
I0111 11:56:23.452905 28786 net.cpp:165] Memory required for data: 607979520
I0111 11:56:23.452908 28786 layer_factory.hpp:77] Creating layer conv5_3_D
I0111 11:56:23.452916 28786 net.cpp:100] Creating Layer conv5_3_D
I0111 11:56:23.452919 28786 net.cpp:434] conv5_3_D <- pool5_D
I0111 11:56:23.452924 28786 net.cpp:408] conv5_3_D -> conv5_3_D
I0111 11:56:23.471982 28786 net.cpp:150] Setting up conv5_3_D
I0111 11:56:23.471997 28786 net.cpp:157] Top shape: 1 512 23 30 (353280)
I0111 11:56:23.472004 28786 net.cpp:165] Memory required for data: 609392640
I0111 11:56:23.472013 28786 layer_factory.hpp:77] Creating layer conv5_3_D_bn
I0111 11:56:23.472025 28786 net.cpp:100] Creating Layer conv5_3_D_bn
I0111 11:56:23.472029 28786 net.cpp:434] conv5_3_D_bn <- conv5_3_D
I0111 11:56:23.472035 28786 net.cpp:395] conv5_3_D_bn -> conv5_3_D (in-place)
I0111 11:56:23.472227 28786 net.cpp:150] Setting up conv5_3_D_bn
I0111 11:56:23.472232 28786 net.cpp:157] Top shape: 1 512 23 30 (353280)
I0111 11:56:23.472239 28786 net.cpp:165] Memory required for data: 610805760
I0111 11:56:23.472246 28786 layer_factory.hpp:77] Creating layer relu5_3_D
I0111 11:56:23.472254 28786 net.cpp:100] Creating Layer relu5_3_D
I0111 11:56:23.472256 28786 net.cpp:434] relu5_3_D <- conv5_3_D
I0111 11:56:23.472260 28786 net.cpp:395] relu5_3_D -> conv5_3_D (in-place)
I0111 11:56:23.472587 28786 net.cpp:150] Setting up relu5_3_D
I0111 11:56:23.472596 28786 net.cpp:157] Top shape: 1 512 23 30 (353280)
I0111 11:56:23.472602 28786 net.cpp:165] Memory required for data: 612218880
I0111 11:56:23.472606 28786 layer_factory.hpp:77] Creating layer conv5_2_D
I0111 11:56:23.472620 28786 net.cpp:100] Creating Layer conv5_2_D
I0111 11:56:23.472623 28786 net.cpp:434] conv5_2_D <- conv5_3_D
I0111 11:56:23.472630 28786 net.cpp:408] conv5_2_D -> conv5_2_D
I0111 11:56:23.492060 28786 net.cpp:150] Setting up conv5_2_D
I0111 11:56:23.492079 28786 net.cpp:157] Top shape: 1 512 23 30 (353280)
I0111 11:56:23.492108 28786 net.cpp:165] Memory required for data: 613632000
I0111 11:56:23.492118 28786 layer_factory.hpp:77] Creating layer conv5_2_D_bn
I0111 11:56:23.492131 28786 net.cpp:100] Creating Layer conv5_2_D_bn
I0111 11:56:23.492136 28786 net.cpp:434] conv5_2_D_bn <- conv5_2_D
I0111 11:56:23.492143 28786 net.cpp:395] conv5_2_D_bn -> conv5_2_D (in-place)
I0111 11:56:23.492403 28786 net.cpp:150] Setting up conv5_2_D_bn
I0111 11:56:23.492411 28786 net.cpp:157] Top shape: 1 512 23 30 (353280)
I0111 11:56:23.492417 28786 net.cpp:165] Memory required for data: 615045120
I0111 11:56:23.492425 28786 layer_factory.hpp:77] Creating layer relu5_2_D
I0111 11:56:23.492432 28786 net.cpp:100] Creating Layer relu5_2_D
I0111 11:56:23.492436 28786 net.cpp:434] relu5_2_D <- conv5_2_D
I0111 11:56:23.492442 28786 net.cpp:395] relu5_2_D -> conv5_2_D (in-place)
I0111 11:56:23.492836 28786 net.cpp:150] Setting up relu5_2_D
I0111 11:56:23.492846 28786 net.cpp:157] Top shape: 1 512 23 30 (353280)
I0111 11:56:23.492851 28786 net.cpp:165] Memory required for data: 616458240
I0111 11:56:23.492856 28786 layer_factory.hpp:77] Creating layer conv5_1_D
I0111 11:56:23.492871 28786 net.cpp:100] Creating Layer conv5_1_D
I0111 11:56:23.492877 28786 net.cpp:434] conv5_1_D <- conv5_2_D
I0111 11:56:23.492882 28786 net.cpp:408] conv5_1_D -> conv5_1_D
I0111 11:56:23.513160 28786 net.cpp:150] Setting up conv5_1_D
I0111 11:56:23.513175 28786 net.cpp:157] Top shape: 1 512 23 30 (353280)
I0111 11:56:23.513180 28786 net.cpp:165] Memory required for data: 617871360
I0111 11:56:23.513186 28786 layer_factory.hpp:77] Creating layer conv5_1_D_bn
I0111 11:56:23.513198 28786 net.cpp:100] Creating Layer conv5_1_D_bn
I0111 11:56:23.513203 28786 net.cpp:434] conv5_1_D_bn <- conv5_1_D
I0111 11:56:23.513208 28786 net.cpp:395] conv5_1_D_bn -> conv5_1_D (in-place)
I0111 11:56:23.513398 28786 net.cpp:150] Setting up conv5_1_D_bn
I0111 11:56:23.513404 28786 net.cpp:157] Top shape: 1 512 23 30 (353280)
I0111 11:56:23.513408 28786 net.cpp:165] Memory required for data: 619284480
I0111 11:56:23.513414 28786 layer_factory.hpp:77] Creating layer relu5_1_D
I0111 11:56:23.513419 28786 net.cpp:100] Creating Layer relu5_1_D
I0111 11:56:23.513422 28786 net.cpp:434] relu5_1_D <- conv5_1_D
I0111 11:56:23.513425 28786 net.cpp:395] relu5_1_D -> conv5_1_D (in-place)
I0111 11:56:23.513743 28786 net.cpp:150] Setting up relu5_1_D
I0111 11:56:23.513749 28786 net.cpp:157] Top shape: 1 512 23 30 (353280)
I0111 11:56:23.513753 28786 net.cpp:165] Memory required for data: 620697600
I0111 11:56:23.513756 28786 layer_factory.hpp:77] Creating layer upsample4
I0111 11:56:23.513762 28786 net.cpp:100] Creating Layer upsample4
I0111 11:56:23.513764 28786 net.cpp:434] upsample4 <- conv5_1_D
I0111 11:56:23.513768 28786 net.cpp:434] upsample4 <- pool4_mask
I0111 11:56:23.513772 28786 net.cpp:408] upsample4 -> pool4_D
I0111 11:56:23.513801 28786 net.cpp:150] Setting up upsample4
I0111 11:56:23.513805 28786 net.cpp:157] Top shape: 1 512 45 60 (1382400)
I0111 11:56:23.513809 28786 net.cpp:165] Memory required for data: 626227200
I0111 11:56:23.513811 28786 layer_factory.hpp:77] Creating layer conv4_3_D
I0111 11:56:23.513820 28786 net.cpp:100] Creating Layer conv4_3_D
I0111 11:56:23.513824 28786 net.cpp:434] conv4_3_D <- pool4_D
I0111 11:56:23.513830 28786 net.cpp:408] conv4_3_D -> conv4_3_D
I0111 11:56:23.535218 28786 net.cpp:150] Setting up conv4_3_D
I0111 11:56:23.535233 28786 net.cpp:157] Top shape: 1 512 45 60 (1382400)
I0111 11:56:23.535239 28786 net.cpp:165] Memory required for data: 631756800
I0111 11:56:23.535251 28786 layer_factory.hpp:77] Creating layer conv4_3_D_bn
I0111 11:56:23.535262 28786 net.cpp:100] Creating Layer conv4_3_D_bn
I0111 11:56:23.535267 28786 net.cpp:434] conv4_3_D_bn <- conv4_3_D
I0111 11:56:23.535275 28786 net.cpp:395] conv4_3_D_bn -> conv4_3_D (in-place)
I0111 11:56:23.535542 28786 net.cpp:150] Setting up conv4_3_D_bn
I0111 11:56:23.535549 28786 net.cpp:157] Top shape: 1 512 45 60 (1382400)
I0111 11:56:23.535553 28786 net.cpp:165] Memory required for data: 637286400
I0111 11:56:23.535581 28786 layer_factory.hpp:77] Creating layer relu4_3_D
I0111 11:56:23.535588 28786 net.cpp:100] Creating Layer relu4_3_D
I0111 11:56:23.535593 28786 net.cpp:434] relu4_3_D <- conv4_3_D
I0111 11:56:23.535598 28786 net.cpp:395] relu4_3_D -> conv4_3_D (in-place)
I0111 11:56:23.535972 28786 net.cpp:150] Setting up relu4_3_D
I0111 11:56:23.535979 28786 net.cpp:157] Top shape: 1 512 45 60 (1382400)
I0111 11:56:23.535984 28786 net.cpp:165] Memory required for data: 642816000
I0111 11:56:23.535985 28786 layer_factory.hpp:77] Creating layer conv4_2_D
I0111 11:56:23.535995 28786 net.cpp:100] Creating Layer conv4_2_D
I0111 11:56:23.535998 28786 net.cpp:434] conv4_2_D <- conv4_3_D
I0111 11:56:23.536005 28786 net.cpp:408] conv4_2_D -> conv4_2_D
I0111 11:56:23.558342 28786 net.cpp:150] Setting up conv4_2_D
I0111 11:56:23.558359 28786 net.cpp:157] Top shape: 1 512 45 60 (1382400)
I0111 11:56:23.558365 28786 net.cpp:165] Memory required for data: 648345600
I0111 11:56:23.558372 28786 layer_factory.hpp:77] Creating layer conv4_2_D_bn
I0111 11:56:23.558380 28786 net.cpp:100] Creating Layer conv4_2_D_bn
I0111 11:56:23.558384 28786 net.cpp:434] conv4_2_D_bn <- conv4_2_D
I0111 11:56:23.558390 28786 net.cpp:395] conv4_2_D_bn -> conv4_2_D (in-place)
I0111 11:56:23.558581 28786 net.cpp:150] Setting up conv4_2_D_bn
I0111 11:56:23.558586 28786 net.cpp:157] Top shape: 1 512 45 60 (1382400)
I0111 11:56:23.558590 28786 net.cpp:165] Memory required for data: 653875200
I0111 11:56:23.558595 28786 layer_factory.hpp:77] Creating layer relu4_2_D
I0111 11:56:23.558600 28786 net.cpp:100] Creating Layer relu4_2_D
I0111 11:56:23.558604 28786 net.cpp:434] relu4_2_D <- conv4_2_D
I0111 11:56:23.558606 28786 net.cpp:395] relu4_2_D -> conv4_2_D (in-place)
I0111 11:56:23.559108 28786 net.cpp:150] Setting up relu4_2_D
I0111 11:56:23.559115 28786 net.cpp:157] Top shape: 1 512 45 60 (1382400)
I0111 11:56:23.559119 28786 net.cpp:165] Memory required for data: 659404800
I0111 11:56:23.559121 28786 layer_factory.hpp:77] Creating layer conv4_1_D
I0111 11:56:23.559134 28786 net.cpp:100] Creating Layer conv4_1_D
I0111 11:56:23.559136 28786 net.cpp:434] conv4_1_D <- conv4_2_D
I0111 11:56:23.559140 28786 net.cpp:408] conv4_1_D -> conv4_1_D
I0111 11:56:23.570137 28786 net.cpp:150] Setting up conv4_1_D
I0111 11:56:23.570152 28786 net.cpp:157] Top shape: 1 256 45 60 (691200)
I0111 11:56:23.570158 28786 net.cpp:165] Memory required for data: 662169600
I0111 11:56:23.570163 28786 layer_factory.hpp:77] Creating layer conv4_1_D_bn
I0111 11:56:23.570183 28786 net.cpp:100] Creating Layer conv4_1_D_bn
I0111 11:56:23.570188 28786 net.cpp:434] conv4_1_D_bn <- conv4_1_D
I0111 11:56:23.570192 28786 net.cpp:395] conv4_1_D_bn -> conv4_1_D (in-place)
I0111 11:56:23.570385 28786 net.cpp:150] Setting up conv4_1_D_bn
I0111 11:56:23.570389 28786 net.cpp:157] Top shape: 1 256 45 60 (691200)
I0111 11:56:23.570394 28786 net.cpp:165] Memory required for data: 664934400
I0111 11:56:23.570400 28786 layer_factory.hpp:77] Creating layer relu4_1_D
I0111 11:56:23.570405 28786 net.cpp:100] Creating Layer relu4_1_D
I0111 11:56:23.570407 28786 net.cpp:434] relu4_1_D <- conv4_1_D
I0111 11:56:23.570410 28786 net.cpp:395] relu4_1_D -> conv4_1_D (in-place)
I0111 11:56:23.570749 28786 net.cpp:150] Setting up relu4_1_D
I0111 11:56:23.570755 28786 net.cpp:157] Top shape: 1 256 45 60 (691200)
I0111 11:56:23.570760 28786 net.cpp:165] Memory required for data: 667699200
I0111 11:56:23.570762 28786 layer_factory.hpp:77] Creating layer upsample3
I0111 11:56:23.570773 28786 net.cpp:100] Creating Layer upsample3
I0111 11:56:23.570780 28786 net.cpp:434] upsample3 <- conv4_1_D
I0111 11:56:23.570785 28786 net.cpp:434] upsample3 <- pool3_mask
I0111 11:56:23.570791 28786 net.cpp:408] upsample3 -> pool3_D
I0111 11:56:23.570797 28786 upsample_layer.cpp:27] Params 'pad_out_{}_' are deprecated. Please declare upsample height and width useing the upsample_h, upsample_w parameters.
I0111 11:56:23.570828 28786 net.cpp:150] Setting up upsample3
I0111 11:56:23.570833 28786 net.cpp:157] Top shape: 1 256 90 120 (2764800)
I0111 11:56:23.570860 28786 net.cpp:165] Memory required for data: 678758400
I0111 11:56:23.570864 28786 layer_factory.hpp:77] Creating layer conv3_3_D
I0111 11:56:23.570876 28786 net.cpp:100] Creating Layer conv3_3_D
I0111 11:56:23.570880 28786 net.cpp:434] conv3_3_D <- pool3_D
I0111 11:56:23.570888 28786 net.cpp:408] conv3_3_D -> conv3_3_D
I0111 11:56:23.577996 28786 net.cpp:150] Setting up conv3_3_D
I0111 11:56:23.578011 28786 net.cpp:157] Top shape: 1 256 90 120 (2764800)
I0111 11:56:23.578017 28786 net.cpp:165] Memory required for data: 689817600
I0111 11:56:23.578024 28786 layer_factory.hpp:77] Creating layer conv3_3_D_bn
I0111 11:56:23.578035 28786 net.cpp:100] Creating Layer conv3_3_D_bn
I0111 11:56:23.578039 28786 net.cpp:434] conv3_3_D_bn <- conv3_3_D
I0111 11:56:23.578044 28786 net.cpp:395] conv3_3_D_bn -> conv3_3_D (in-place)
I0111 11:56:23.578238 28786 net.cpp:150] Setting up conv3_3_D_bn
I0111 11:56:23.578243 28786 net.cpp:157] Top shape: 1 256 90 120 (2764800)
I0111 11:56:23.578245 28786 net.cpp:165] Memory required for data: 700876800
I0111 11:56:23.578251 28786 layer_factory.hpp:77] Creating layer relu3_3_D
I0111 11:56:23.578255 28786 net.cpp:100] Creating Layer relu3_3_D
I0111 11:56:23.578258 28786 net.cpp:434] relu3_3_D <- conv3_3_D
I0111 11:56:23.578261 28786 net.cpp:395] relu3_3_D -> conv3_3_D (in-place)
I0111 11:56:23.578613 28786 net.cpp:150] Setting up relu3_3_D
I0111 11:56:23.578620 28786 net.cpp:157] Top shape: 1 256 90 120 (2764800)
I0111 11:56:23.578626 28786 net.cpp:165] Memory required for data: 711936000
I0111 11:56:23.578629 28786 layer_factory.hpp:77] Creating layer conv3_2_D
I0111 11:56:23.578644 28786 net.cpp:100] Creating Layer conv3_2_D
I0111 11:56:23.578647 28786 net.cpp:434] conv3_2_D <- conv3_3_D
I0111 11:56:23.578652 28786 net.cpp:408] conv3_2_D -> conv3_2_D
I0111 11:56:23.585346 28786 net.cpp:150] Setting up conv3_2_D
I0111 11:56:23.585361 28786 net.cpp:157] Top shape: 1 256 90 120 (2764800)
I0111 11:56:23.585366 28786 net.cpp:165] Memory required for data: 722995200
I0111 11:56:23.585374 28786 layer_factory.hpp:77] Creating layer conv3_2_D_bn
I0111 11:56:23.585386 28786 net.cpp:100] Creating Layer conv3_2_D_bn
I0111 11:56:23.585391 28786 net.cpp:434] conv3_2_D_bn <- conv3_2_D
I0111 11:56:23.585397 28786 net.cpp:395] conv3_2_D_bn -> conv3_2_D (in-place)
I0111 11:56:23.585618 28786 net.cpp:150] Setting up conv3_2_D_bn
I0111 11:56:23.585623 28786 net.cpp:157] Top shape: 1 256 90 120 (2764800)
I0111 11:56:23.585628 28786 net.cpp:165] Memory required for data: 734054400
I0111 11:56:23.585633 28786 layer_factory.hpp:77] Creating layer relu3_2_D
I0111 11:56:23.585640 28786 net.cpp:100] Creating Layer relu3_2_D
I0111 11:56:23.585644 28786 net.cpp:434] relu3_2_D <- conv3_2_D
I0111 11:56:23.585649 28786 net.cpp:395] relu3_2_D -> conv3_2_D (in-place)
I0111 11:56:23.585995 28786 net.cpp:150] Setting up relu3_2_D
I0111 11:56:23.586002 28786 net.cpp:157] Top shape: 1 256 90 120 (2764800)
I0111 11:56:23.586009 28786 net.cpp:165] Memory required for data: 745113600
I0111 11:56:23.586011 28786 layer_factory.hpp:77] Creating layer conv3_1_D
I0111 11:56:23.586021 28786 net.cpp:100] Creating Layer conv3_1_D
I0111 11:56:23.586024 28786 net.cpp:434] conv3_1_D <- conv3_2_D
I0111 11:56:23.586028 28786 net.cpp:408] conv3_1_D -> conv3_1_D
I0111 11:56:23.590117 28786 net.cpp:150] Setting up conv3_1_D
I0111 11:56:23.590131 28786 net.cpp:157] Top shape: 1 128 90 120 (1382400)
I0111 11:56:23.590137 28786 net.cpp:165] Memory required for data: 750643200
I0111 11:56:23.590145 28786 layer_factory.hpp:77] Creating layer conv3_1_D_bn
I0111 11:56:23.590153 28786 net.cpp:100] Creating Layer conv3_1_D_bn
I0111 11:56:23.590157 28786 net.cpp:434] conv3_1_D_bn <- conv3_1_D
I0111 11:56:23.590162 28786 net.cpp:395] conv3_1_D_bn -> conv3_1_D (in-place)
I0111 11:56:23.590374 28786 net.cpp:150] Setting up conv3_1_D_bn
I0111 11:56:23.590381 28786 net.cpp:157] Top shape: 1 128 90 120 (1382400)
I0111 11:56:23.590386 28786 net.cpp:165] Memory required for data: 756172800
I0111 11:56:23.590394 28786 layer_factory.hpp:77] Creating layer relu3_1_D
I0111 11:56:23.590418 28786 net.cpp:100] Creating Layer relu3_1_D
I0111 11:56:23.590423 28786 net.cpp:434] relu3_1_D <- conv3_1_D
I0111 11:56:23.590428 28786 net.cpp:395] relu3_1_D -> conv3_1_D (in-place)
I0111 11:56:23.591003 28786 net.cpp:150] Setting up relu3_1_D
I0111 11:56:23.591014 28786 net.cpp:157] Top shape: 1 128 90 120 (1382400)
I0111 11:56:23.591020 28786 net.cpp:165] Memory required for data: 761702400
I0111 11:56:23.591023 28786 layer_factory.hpp:77] Creating layer upsample2
I0111 11:56:23.591030 28786 net.cpp:100] Creating Layer upsample2
I0111 11:56:23.591033 28786 net.cpp:434] upsample2 <- conv3_1_D
I0111 11:56:23.591037 28786 net.cpp:434] upsample2 <- pool2_mask
I0111 11:56:23.591042 28786 net.cpp:408] upsample2 -> pool2_D
I0111 11:56:23.591047 28786 upsample_layer.cpp:27] Params 'pad_out_{}_' are deprecated. Please declare upsample height and width useing the upsample_h, upsample_w parameters.
I0111 11:56:23.591076 28786 net.cpp:150] Setting up upsample2
I0111 11:56:23.591081 28786 net.cpp:157] Top shape: 1 128 180 240 (5529600)
I0111 11:56:23.591085 28786 net.cpp:165] Memory required for data: 783820800
I0111 11:56:23.591089 28786 layer_factory.hpp:77] Creating layer conv2_2_D
I0111 11:56:23.591097 28786 net.cpp:100] Creating Layer conv2_2_D
I0111 11:56:23.591101 28786 net.cpp:434] conv2_2_D <- pool2_D
I0111 11:56:23.591106 28786 net.cpp:408] conv2_2_D -> conv2_2_D
I0111 11:56:23.593991 28786 net.cpp:150] Setting up conv2_2_D
I0111 11:56:23.594007 28786 net.cpp:157] Top shape: 1 128 180 240 (5529600)
I0111 11:56:23.594012 28786 net.cpp:165] Memory required for data: 805939200
I0111 11:56:23.594019 28786 layer_factory.hpp:77] Creating layer conv2_2_D_bn
I0111 11:56:23.594028 28786 net.cpp:100] Creating Layer conv2_2_D_bn
I0111 11:56:23.594033 28786 net.cpp:434] conv2_2_D_bn <- conv2_2_D
I0111 11:56:23.594038 28786 net.cpp:395] conv2_2_D_bn -> conv2_2_D (in-place)
I0111 11:56:23.594264 28786 net.cpp:150] Setting up conv2_2_D_bn
I0111 11:56:23.594269 28786 net.cpp:157] Top shape: 1 128 180 240 (5529600)
I0111 11:56:23.594274 28786 net.cpp:165] Memory required for data: 828057600
I0111 11:56:23.594282 28786 layer_factory.hpp:77] Creating layer relu2_2_D
I0111 11:56:23.594287 28786 net.cpp:100] Creating Layer relu2_2_D
I0111 11:56:23.594290 28786 net.cpp:434] relu2_2_D <- conv2_2_D
I0111 11:56:23.594293 28786 net.cpp:395] relu2_2_D -> conv2_2_D (in-place)
I0111 11:56:23.595654 28786 net.cpp:150] Setting up relu2_2_D
I0111 11:56:23.595665 28786 net.cpp:157] Top shape: 1 128 180 240 (5529600)
I0111 11:56:23.595680 28786 net.cpp:165] Memory required for data: 850176000
I0111 11:56:23.595686 28786 layer_factory.hpp:77] Creating layer conv2_1_D
I0111 11:56:23.595697 28786 net.cpp:100] Creating Layer conv2_1_D
I0111 11:56:23.595701 28786 net.cpp:434] conv2_1_D <- conv2_2_D
I0111 11:56:23.595710 28786 net.cpp:408] conv2_1_D -> conv2_1_D
I0111 11:56:23.597800 28786 net.cpp:150] Setting up conv2_1_D
I0111 11:56:23.597811 28786 net.cpp:157] Top shape: 1 64 180 240 (2764800)
I0111 11:56:23.597816 28786 net.cpp:165] Memory required for data: 861235200
I0111 11:56:23.597823 28786 layer_factory.hpp:77] Creating layer conv2_1_D_bn
I0111 11:56:23.597834 28786 net.cpp:100] Creating Layer conv2_1_D_bn
I0111 11:56:23.597838 28786 net.cpp:434] conv2_1_D_bn <- conv2_1_D
I0111 11:56:23.597842 28786 net.cpp:395] conv2_1_D_bn -> conv2_1_D (in-place)
I0111 11:56:23.598693 28786 net.cpp:150] Setting up conv2_1_D_bn
I0111 11:56:23.598703 28786 net.cpp:157] Top shape: 1 64 180 240 (2764800)
I0111 11:56:23.598707 28786 net.cpp:165] Memory required for data: 872294400
I0111 11:56:23.598716 28786 layer_factory.hpp:77] Creating layer relu2_1_D
I0111 11:56:23.598724 28786 net.cpp:100] Creating Layer relu2_1_D
I0111 11:56:23.598726 28786 net.cpp:434] relu2_1_D <- conv2_1_D
I0111 11:56:23.598731 28786 net.cpp:395] relu2_1_D -> conv2_1_D (in-place)
I0111 11:56:23.599082 28786 net.cpp:150] Setting up relu2_1_D
I0111 11:56:23.599090 28786 net.cpp:157] Top shape: 1 64 180 240 (2764800)
I0111 11:56:23.599093 28786 net.cpp:165] Memory required for data: 883353600
I0111 11:56:23.599113 28786 layer_factory.hpp:77] Creating layer upsample1
I0111 11:56:23.599119 28786 net.cpp:100] Creating Layer upsample1
I0111 11:56:23.599123 28786 net.cpp:434] upsample1 <- conv2_1_D
I0111 11:56:23.599125 28786 net.cpp:434] upsample1 <- pool1_mask
I0111 11:56:23.599130 28786 net.cpp:408] upsample1 -> pool1_D
I0111 11:56:23.599136 28786 upsample_layer.cpp:27] Params 'pad_out_{}_' are deprecated. Please declare upsample height and width useing the upsample_h, upsample_w parameters.
I0111 11:56:23.599171 28786 net.cpp:150] Setting up upsample1
I0111 11:56:23.599176 28786 net.cpp:157] Top shape: 1 64 360 480 (11059200)
I0111 11:56:23.599181 28786 net.cpp:165] Memory required for data: 927590400
I0111 11:56:23.599185 28786 layer_factory.hpp:77] Creating layer conv1_2_D
I0111 11:56:23.599195 28786 net.cpp:100] Creating Layer conv1_2_D
I0111 11:56:23.599200 28786 net.cpp:434] conv1_2_D <- pool1_D
I0111 11:56:23.599207 28786 net.cpp:408] conv1_2_D -> conv1_2_D
I0111 11:56:23.601018 28786 net.cpp:150] Setting up conv1_2_D
I0111 11:56:23.601029 28786 net.cpp:157] Top shape: 1 64 360 480 (11059200)
I0111 11:56:23.601033 28786 net.cpp:165] Memory required for data: 971827200
I0111 11:56:23.601040 28786 layer_factory.hpp:77] Creating layer conv1_2_D_bn
I0111 11:56:23.601050 28786 net.cpp:100] Creating Layer conv1_2_D_bn
I0111 11:56:23.601055 28786 net.cpp:434] conv1_2_D_bn <- conv1_2_D
I0111 11:56:23.601061 28786 net.cpp:395] conv1_2_D_bn -> conv1_2_D (in-place)
I0111 11:56:23.602232 28786 net.cpp:150] Setting up conv1_2_D_bn
I0111 11:56:23.602247 28786 net.cpp:157] Top shape: 1 64 360 480 (11059200)
I0111 11:56:23.602254 28786 net.cpp:165] Memory required for data: 1016064000
I0111 11:56:23.602265 28786 layer_factory.hpp:77] Creating layer relu1_2_D
I0111 11:56:23.602273 28786 net.cpp:100] Creating Layer relu1_2_D
I0111 11:56:23.602277 28786 net.cpp:434] relu1_2_D <- conv1_2_D
I0111 11:56:23.602280 28786 net.cpp:395] relu1_2_D -> conv1_2_D (in-place)
I0111 11:56:23.602671 28786 net.cpp:150] Setting up relu1_2_D
I0111 11:56:23.602679 28786 net.cpp:157] Top shape: 1 64 360 480 (11059200)
I0111 11:56:23.602684 28786 net.cpp:165] Memory required for data: 1060300800
I0111 11:56:23.602687 28786 layer_factory.hpp:77] Creating layer conv1_1_D
I0111 11:56:23.602699 28786 net.cpp:100] Creating Layer conv1_1_D
I0111 11:56:23.602702 28786 net.cpp:434] conv1_1_D <- conv1_2_D
I0111 11:56:23.602710 28786 net.cpp:408] conv1_1_D -> conv1_1_D
I0111 11:56:23.604261 28786 net.cpp:150] Setting up conv1_1_D
I0111 11:56:23.604271 28786 net.cpp:157] Top shape: 1 11 360 480 (1900800)
I0111 11:56:23.604276 28786 net.cpp:165] Memory required for data: 1067904000
I0111 11:56:23.604284 28786 layer_factory.hpp:77] Creating layer conv1_1_D_conv1_1_D_0_split
I0111 11:56:23.604291 28786 net.cpp:100] Creating Layer conv1_1_D_conv1_1_D_0_split
I0111 11:56:23.604295 28786 net.cpp:434] conv1_1_D_conv1_1_D_0_split <- conv1_1_D
I0111 11:56:23.604298 28786 net.cpp:408] conv1_1_D_conv1_1_D_0_split -> conv1_1_D_conv1_1_D_0_split_0
I0111 11:56:23.604303 28786 net.cpp:408] conv1_1_D_conv1_1_D_0_split -> conv1_1_D_conv1_1_D_0_split_1
I0111 11:56:23.604343 28786 net.cpp:150] Setting up conv1_1_D_conv1_1_D_0_split
I0111 11:56:23.604347 28786 net.cpp:157] Top shape: 1 11 360 480 (1900800)
I0111 11:56:23.604351 28786 net.cpp:157] Top shape: 1 11 360 480 (1900800)
I0111 11:56:23.604353 28786 net.cpp:165] Memory required for data: 1083110400
I0111 11:56:23.604357 28786 layer_factory.hpp:77] Creating layer loss
I0111 11:56:23.604364 28786 net.cpp:100] Creating Layer loss
I0111 11:56:23.604368 28786 net.cpp:434] loss <- conv1_1_D_conv1_1_D_0_split_0
I0111 11:56:23.604372 28786 net.cpp:434] loss <- label_data_1_split_0
I0111 11:56:23.604380 28786 net.cpp:408] loss -> loss
I0111 11:56:23.604393 28786 layer_factory.hpp:77] Creating layer loss
I0111 11:56:23.607304 28786 net.cpp:150] Setting up loss
I0111 11:56:23.607322 28786 net.cpp:157] Top shape: (1)
I0111 11:56:23.607327 28786 net.cpp:160]     with loss weight 1
I0111 11:56:23.607370 28786 net.cpp:165] Memory required for data: 1083110404
I0111 11:56:23.607375 28786 layer_factory.hpp:77] Creating layer accuracy
I0111 11:56:23.607383 28786 net.cpp:100] Creating Layer accuracy
I0111 11:56:23.607386 28786 net.cpp:434] accuracy <- conv1_1_D_conv1_1_D_0_split_1
I0111 11:56:23.607390 28786 net.cpp:434] accuracy <- label_data_1_split_1
I0111 11:56:23.607394 28786 net.cpp:408] accuracy -> accuracy
I0111 11:56:23.607400 28786 net.cpp:408] accuracy -> per_class_accuracy
I0111 11:56:23.607458 28786 net.cpp:150] Setting up accuracy
I0111 11:56:23.607463 28786 net.cpp:157] Top shape: (1)
I0111 11:56:23.607467 28786 net.cpp:157] Top shape: 11 (11)
I0111 11:56:23.607471 28786 net.cpp:165] Memory required for data: 1083110452
I0111 11:56:23.607475 28786 net.cpp:228] accuracy does not need backward computation.
I0111 11:56:23.607478 28786 net.cpp:226] loss needs backward computation.
I0111 11:56:23.607483 28786 net.cpp:226] conv1_1_D_conv1_1_D_0_split needs backward computation.
I0111 11:56:23.607486 28786 net.cpp:226] conv1_1_D needs backward computation.
…
